…
blockquote><pre class="line-numbers language-none"><code class="language-none">if __name__ == '__main__':    res = make_model(source_vocab, target_vocab, N)    print(res)<span aria-hidden="true" class="line-numbers-rows"><span></span><span></span><span></span></span></code></pre><hr><blockquote><ul><li>输出效果:</li></ul></blockquote><pre class="line-numbers language-none"><code class="language-none"># 根据Transformer结构图构建的最终模型结构EncoderDecoder(  (encoder): Encoder(    (layers): ModuleList(      (0): EncoderLayer(        (self_attn): MultiHeadedAttention(          (linears): ModuleList(            (0): Linear(in_features=512, out_features=512)            (1): Linear(in_features=512, out_features=512)            (2): Linear(in_features=512, out_features=512)            (3): Linear(in_features=512, out_features=512)          )          (dropout): Dropout(p=0.1)        )        (feed_forward): PositionwiseFeedForward(          (w_1): Linear(in_features=512, out_features=2048)          (w_2): Linear(in_features=2048, out_features=512)          (dropout): Dropout(p=0.1)        )        (sublayer): ModuleList(          (0): SublayerConnection(            (norm): LayerNorm(            )            (dropout): Dropout(p=0.1)          )          (1): SublayerConnection(            (norm): LayerNorm(            )            (dropout): Dropout(p=0.1)          )        )      )      (1): EncoderLayer(        (self_attn): MultiHeadedAttention(          (linears): ModuleList(            (0): Linear(in_features=512, out_features=512)            (1): Linear(in_features=512, out_features=512)            (2): Linear(in_features=512, out_features=512)            (3): Linear(in_features=512, out_features=512)          )          (dropout): Dropout(p=0.1)        )        (feed_forward): PositionwiseFeedForward(          (w_1): Linear(in_features=512, out_features=2048)          (w_2): Linear(in_features=2048, out_features=512)          (dropout): Dropout(p=0.1)        )        (sublayer): ModuleList(          (0): SublayerConnection(            (norm): LayerNorm(            )            (dropout): Dropout(p=0.1)          )          (1): SublayerConnection(            (norm): LayerNorm(            )            (dropout): Dropout(p=0.1)          )        )      )    )    (norm): LayerNorm(    )  )  (decoder): Decoder(    (layers): ModuleList(      (0): DecoderLayer(        (self_attn): MultiHeadedAttention(          (linears): ModuleList(            (0): Linear(in_features=512, out_features=512)            (1): Linear(in_features=512, out_features=512)            (2): Linear(in_features=512, out_features=512)            (3): Linear(in_features=512, out_features=512)          )          (dropout): Dropout(p=0.1)        )        (src_attn): MultiHeadedAttention(          (linears): ModuleList(            (0): Linear(in_features=512, out_features=512)            (1): Linear(in_features=512, out_features=512)            (2): Linear(in_features=512, out_features=512)            (3): Linear(in_features=512, out_features=512)          )          (dropout): Dropout(p=0.1)        )        (feed_forward): PositionwiseFeedForward(          (w_1): Linear(in_features=512, out_features=2048)          (w_2): Linear(in_features=2048, out_features=512)          (dropout): Dropout(p=0.1)        )        (sublayer): ModuleList(          (0): SublayerConnection(            (norm): LayerNorm(            )            (dropout): Dropout(p=0.1)          )          (1): SublayerConnection(            (norm): LayerNorm(            )            (dropout): Dropout(p=0.1)          )          (2): SublayerConnection(            (norm): LayerNorm(            )            (dropout): Dropout(p=0.1)          )        )      )      (1): DecoderLayer(        (self_attn): MultiHeadedAttention(          (linears): ModuleList(            (0): Linear(in_features=512, out_features=512)            (1): Linear(in_features=512, out_features=512)            (2): Linear(in_features=512, out_features=512)            (3): Linear(in_features=512, out_features=512)          )          (dropout): Dropout(p=0.1)        )        (src_attn): MultiHeadedAttention(          (linears): ModuleList(            (0): Linear(in_features=512, out_features=512)            (1): Linear(in_features=512, out_features=512)            (2): Linear(in_features=512, out_features=512)            (3): Linear(in_features=512, out_features=512)          )          (dropout): Dropout(p=0.1)        )        (feed_forward): PositionwiseFeedForward(          (w_1): Linear(in_features=512, out_features=2048)          (w_2): Linear(in_features=2048, out_features=512)          (dropout): Dropout(p=0.1)        )        (sublayer): ModuleList(          (0): SublayerConnection(            (norm): LayerNorm(            )            (dropout): Dropout(p=0.1)          )          (1): SublayerConnection(            (norm): LayerNorm(            )            (dropout): Dropout(p=0.1)          )          (2): SublayerConnection(            (norm): LayerNorm(            )            (dropout): Dropout(p=0.1)          )        )      )    )    (norm): LayerNorm(    )  )  (src_embed): Sequential(    (0): Embeddings(      (lut): Embedding(11, 512)    )    (1): PositionalEncoding(      (dropout): Dropout(p=0.1)    )  )  (tgt_embed): Sequential(    (0): Embeddings(      (lut): Embedding(11, 512)    )    (1): PositionalEncoding(      (dropout): Dropout(p=0.1)    )  )  (generator): Generator(    (proj): Linear(in_features=512, out_features=11)  ))<span aria-hidden="true" class="line-numbers-rows"><span></span><span></span><span></span><span></span><span></span><span></span><span></span><span></span><span></span><span></span><span></span><span></span><span></span><span></span><span></span><span></span><span></span><span></span><span></span><span></span><span></span><span></span><span></span><span></span>
…
